slim_160_latest.onnx (onnx, 938813 bytes, 52 tensors)

fc.weight f4 [143, 448]
0	0xba12f599	-0.0005606055
1	0x0186aa03	4.946778e-38
2	0xbbd6660a	-0.0065429257
3	0x000030ba	1.748e-41
4	0xbaefaf0a	-0.0018286419
5	0x3b7a4abb	0.0038191515
6	0x3c0ee598	0.008721732
7	0x00002384	1.274e-41
8	0xacd288b4	-5.983736e-12
9	0x3ac1770d	0.0014760211
10	0xba4f4bd0	-0.000790772
11	0x3a655723	0.0008748641
12	0xbd8399a1	-0.06425787
13	0xbc09546b	-0.008381943
14	0x372f50be	1.0449612e-05
15	0x3bef520e	0.007303483
16	0xb517421d	-5.634809e-07
17	0xba90fad1	-0.0011061077
18	0xbb10bc77	-0.002208499
19	0x3aba8565	0.0014230428
20	0xbb50d363	-0.0031864278
21	0xbac8dc53	-0.0015324451
22	0x3b8d8bc6	0.004319641
23	0x3a4b1968	0.0007747621
24	0x3aca1e66	0.0015420436
25	0x80000a8d	-3.785e-42
26	0xbaf062d6	-0.0018340002
27	0x393123a6	0.00016893315
28	0x85752718	-1.1527025e-35
29	0x39811415	0.0002461976
30	0xbad8520e	-0.0016503946
31	0xba0ff6fd	-0.0005491821
32	0xbc1b212b	-0.009468357
33	0xbbcf113c	-0.006319193
34	0x00002dbf	1.641e-41
35	0x3ae0608b	0.0017118616
36	0xbaa76113	-0.0012770019
37	0x3a0adcb7	0.00052971713
38	0x248f4cb3	6.21463e-17
39	0x3c7d40d0	0.015457347
40	0xb86d4aa3	-5.6574714e-05
41	0xb9a9728c	-0.00032319536
42	0x3b4ce0d6	0.0031261942
43	0x3c1517a2	0.009099873
44	0x00000473	1.596e-42
45	0x3bb8f4c3	0.0056444122
46	0xbb0c0526	-0.0021365373
47	0x39150c3d	0.00014214306
48	0x39b75b93	0.00034972708
49	0x80001d08	-1.0414e-41
50	0xbab070ad	-0.0013461314
51	0x3aebea25	0.0017998858
52	0xbb042d30	-0.0020168535
53	0x3b43146d	0.0029766813
54	0x3c4f4df7	0.012652866
55	0x3ba7c2c5	0.005119654
56	0x3bcf72fa	0.006330845
57	0x3b2ca68f	0.0026344394
58	0x000001d8	6.61e-43
59	0x3ad6c05d	0.0016384233
60	0x39cd1d0e	0.00039122294
61	0x3a23cad5	0.0006248181
62	0x3b2a8956	0.00260218
63	0x3384fa30	6.192238e-08
64	0x000032b7	1.8193e-41
65	0x3b0c5e87	0.0021418647
66	0xbb928630	-0.004471563
67	0x3a817925	0.0009878023
68	0xba913f67	-0.0011081517
69	0x3aa9069d	0.0012895648
70	0x0989e397	3.3195575e-33
71	0x00002791	1.4194e-41
72	0xba92d3a2	-0.0011201988
73	0x8000146e	-7.329e-42
74	0x80002e65	-1.6643e-41
75	0x3acdbe46	0.0015696965
76	0xbbc5ad64	-0.0060326327
77	0x3a5b2887	0.0008360226
78	0x000032a8	1.8172e-41
79	0xbb260729	-0.0025333858
80	0xbb3b808e	-0.002861056
81	0xbb97ac03	-0.0046286597
82	0xaca7e0fa	-4.771403e-12
83	0x8000238a	-1.2749e-41
84	0xb9410798	-0.00018408743
85	0xb9236921	-0.00015584055
86	0xbc404b9f	-0.0117367795
87	0x39d64c5c	0.00040874153
88	0x39825e81	0.00024865943
89	0xbc1ad4fc	-0.0094501935
90	0xb93c8181	-0.00017977321
91	0xba199260	-0.00058582984
92	0xbc67effa	-0.014156336
93	0x39d7f97c	0.00041193876
94	0x9527c42e	-3.388014e-26
95	0xbb4037d5	-0.0029330153
96	0x0650f39f	3.9299437e-35
97	0x3b4dc640	0.0031398684
98	0xb9276487	-0.0001596381
99	0x0001969d	1.45865e-40
100	0x3bdad870	0.0066786334
101	0xbb3b2eac	-0.0028561754
102	0x0000071e	2.553e-42
103	0x3b57df0d	0.0032939345
104	0x396033e6	0.00021381638
105	0x80003a64	-2.0947e-41
106	0xbbd1b402	-0.0063996324
107	0x00001ae1	9.642e-42
108	0xbab124b5	-0.0013514968
109	0xb9cab1f8	-0.0003866104
110	0xbbd68d26	-0.006547588
111	0x3b530627	0.0032199712
112	0x3a9c540a	0.0011926901
113	0xbb9b70b4	-0.00474366
114	0xb9bef567	-0.00036422463
115	0xbb02e3f5	-0.0019972299
116	0x39b802ca	0.00035097293
117	0xbb523697	-0.0032075995
118	0x80003ab5	-2.106e-41
119	0x3b715559	0.0036824553
120	0x391dc08b	0.00015044415
121	0xbb372b31	-0.0027949328
122	0xba6e92de	-0.00091008644
123	0x3b54c566	0.0032466291
124	0xbbc6b4d9	-0.006064039
125	0xbb34d14a	-0.0027590566
126	0x2a0dcd63	1.2594574e-13
127	0xbaa689d5	-0.0012705872
128	0xbbd39dd0	-0.0064580217
129	0x0004f70f	4.5597e-40
130	0x80001f19	-1.1156e-41
131	0x3b7df528	0.003875086
132	0xbb3c6dbb	-0.0028751928
133	0x3a411cbb	0.0007366647
134	0x978f58a4	-9.263534e-25
135	0xbac7aecb	-0.0015234587
136	0xb9d75c61	-0.00041076823
137	0x0787c974	2.0430946e-34
138	0x80001a07	-9.337e-42
139	0x3b257ae8	0.002525026
140	0x3a2fd82c	0.00067079323
141	0xbbf4b952	-0.007468381
142	0x0000332b	1.8356e-41
143	0x00001489	7.367e-42
144	0x0e464a65	2.4441204e-30
145	0x000001eb	6.88e-43
146	0xb8bd47f5	-9.025625e-05
147	0xbaa59292	-0.0012632182
148	0x8be9bbad	-9.003072e-32
149	0xbb7f10d5	-0.0038919945
150	0xbae449eb	-0.0017417049
151	0x3bb34ffe	0.0054721823
152	0xbb34df2d	-0.0027598843
153	0x38fc0045	0.000120163466
154	0x172729e0	5.4013464e-25
155	0xbb211dee	-0.002458449
156	0x3ab81e06	0.0014047034
157	0x3a789574	0.00094827195
158	0x8000144c	-7.281e-42
159	0xb9e67bf7	-0.0004396138
160	0xbb0a561d	-0.0021108456
161	0x80002429	-1.2972e-41
162	0xbb8b745f	-0.004255816
163	0x129c4ba7	9.863634e-28
164	0xbbc34655	-0.005959312
165	0xbb026d83	-0.00199017
166	0xbb2375c9	-0.0024942032
167	0x3b6f853c	0.003654792
168	0xbb34b87e	-0.0027575786
169	0xbc1e3629	-0.0096564675
170	0xbd09996d	-0.033593584
171	0x00002818	1.4383e-41
172	0xba1199ee	-0.00055542483
173	0x3c07aa23	0.00828031
174	0xbb0c6805	-0.0021424305
175	0xba558567	-0.00081451837
176	0xb8b8b9d8	-8.80842e-05
177	0xbb406bb6	-0.0029361076
178	0xba06dd9f	-0.00051447185
179	0x3b8bcd31	0.004266404
180	0x3a6743a5	0.00088220305
181	0xbb5bd9e2	-0.0033546616
182	0x3984c27d	0.00025321907
183	0x39dba14e	0.00041891116
184	0x00002757	1.4112e-41
185	0x3c20bc5b	0.009810532
186	0x0006f9a5	6.40569e-40
187	0x1146347f	1.5635623e-28
188	0xba6ad259	-0.0008957736
189	0x3b03da08	0.002011897
190	0xbafc1692	-0.0019232801
191	0xbbda64b1	-0.0066648354
192	0x09921d64	3.517586e-33
193	0x00000cb0	4.551e-42
194	0x0f877733	1.3357942e-29
195	0x00002ff6	1.7205e-41
196	0xbd0f2e6f	-0.034956392
197	0x3d059af8	0.032618493
198	0xbd26402f	-0.040588554
199	0x0000260c	1.3649e-41
200	0x80001e9a	-1.0978e-41
201	0x81b9ed5d	-6.8298867e-38
202	0x000019be	9.235e-42
203	0x8000138d	-7.013e-42
204	0xbdb2a63c	-0.08723113
205	0x8000029c	-9.36e-43
206	0x0000240d	1.2933e-41
207	0x80002e7e	-1.6678e-41
208	0xb51aa245	-5.7605604e-07
209	0x80000d9f	-4.886e-42
210	0x8002c2da	-2.5357e-40
211	0x1dc04707	5.0895417e-21
212	0x2e45aae8	4.494441e-11
213	0x3c62afba	0.013835842
214	0xbde3a2ec	-0.11115059
215	0xbc5a2311	-0.013314025
216	0x3b41ebcb	0.0029590006
217	0x3cc54a92	0.02408341
218	0xbba89f80	-0.005145967
219	0x000025a7	1.3507e-41
220	0x00002ed8	1.6804e-41
221	0x3adc147d	0.0016790774
222	0xadb29c57	-2.0305686e-11
223	0x0a07f8da	6.546817e-33
224	0x8299d5fa	-2.2604146e-37
225	0xafd29026	-3.83012e-10
226	0xb33d100a	-4.401958e-08
227	0xbd0b047a	-0.033939816
228	0xbd4310a6	-0.0476233
229	0x8000141e	-7.217e-42
230	0x000020f1	1.1817e-41
231	0x9ae24b82	-9.35934e-23
232	0x00002b34	1.5498e-41
233	0x3d159c62	0.03652609
234	0x00002273	1.2358e-41
235	0x3daceaf7	0.084432535
236	0x280f77ea	7.964097e-15
237	0x3c9303f5	0.017946223
238	0x0000113f	6.187e-42
239	0x0832873e	5.3723903e-34
240	0xbcc29b3c	-0.023755662
241	0x3d5c8267	0.0538353
242	0x00000140	4.48e-43
243	0x30eb8b14	1.7138029e-09
244	0x3899f49b	7.34117e-05
245	0x197962f5	1.28929825e-23
246	0x0cb167d6	2.7333662e-31
247	0x80002b99	-1.564e-41
248	0xb617540a	-2.254967e-06
249	0x80002bbe	-1.5692e-41
250	0x00002ee1	1.6817e-41
251	0xba8100c8	-0.0009842152
252	0x80000b25	-3.998e-42
253	0x318d6f5c	4.1163e-09
254	0xb690b0ac	-4.3121017e-06
255	0xbc3fc039	-0.011703544

fc.bias f4 [143]
0	0x3d59f085	0.053207893
1	0x3d4d09dc	0.05005823
2	0x3d5a435c	0.053286895
3	0x3d9dcd01	0.07705117
4	0x3d72c297	0.059267607
5	0x3dd79927	0.10527258
6	0x3d482663	0.048864733
7	0x3dff69e3	0.12471368
8	0x3d859fd9	0.06524629
9	0x3e1f4b4d	0.15556069
10	0x3d8d5124	0.06900242
11	0x3e3267d6	0.17422423
12	0x3d90106a	0.07034381
13	0x3e403a6e	0.18772289
14	0x3d9579be	0.07298611
15	0x3e4aaf71	0.19793488
16	0x3dbb98dc	0.09160015
17	0x3e52ba97	0.20578991
18	0x3ded7bb2	0.11595859
19	0x3e4a0991	0.19730212
20	0x3e1920e2	0.1495395
21	0x3e390c46	0.18071088
22	0x3e38f50c	0.18062228
23	0x3e29cda2	0.16582349
24	0x3e50c43a	0.20387354
25	0x3e18e67f	0.14931677
26	0x3e5a3833	0.21310501
27	0x3dee96fa	0.1164989
28	0x3e56c6f8	0.20974338
29	0x3dbcbb3c	0.092153996
30	0x3e57f89b	0.21090929
31	0x3d9258fc	0.07145879
32	0x3e5d67f3	0.21621685
33	0x3d53017f	0.0515151
34	0x3d622c79	0.055218194
35	0x3d03ce4e	0.03217917
36	0x3d523058	0.051315635
37	0x3ca7d017	0.020484967
38	0x3d5ea405	0.05435564
39	0x3c3cba23	0.011518988
40	0x3d797f84	0.060912624
41	0x3c0e2ea9	0.008678117
42	0x3d8bff9e	0.068358645
43	0x3c3f272c	0.011667054
44	0x3dc7872b	0.09742578
45	0x3cc05f8e	0.023483064
46	0x3dd7ddfc	0.10540387
47	0x3c94fff5	0.018188456
48	0x3df37a1f	0.11888527
49	0x3c81aef7	0.0158305
50	0x3e0cf7bf	0.13766383
51	0x3c8ed9d9	0.017437862
52	0x3e27b9c3	0.16379456
53	0x3cad8779	0.021182762
54	0x3da32833	0.07966652
55	0x3d1a5eb5	0.037687976
56	0x3d8a5607	0.0675469
57	0x3d66e38b	0.056369346
58	0x3d5f8b83	0.054576408
59	0x3d9a5837	0.07536357
60	0x3d5fc928	0.054635197
61	0x3dbe598b	0.09294423
62	0x3dac760a	0.08420952
63	0x3dd86e00	0.10567856
64	0x3d9c7c4e	0.07640897
65	0x3dd8d8d2	0.1058823
66	0x3d98315a	0.07431288
67	0x3dd9810b	0.10620316
68	0x3da1fd89	0.07909686
69	0x3dda46cb	0.10658034
70	0x3db037c0	0.086043835
71	0x3dd8900f	0.10574352
72	0x3d862ee9	0.06551916
73	0x3d6db62c	0.05803506
74	0x3d810b3f	0.06300973
75	0x3d5ba6a9	0.053625736
76	0x3d93f0d4	0.07223669
77	0x3d5b515d	0.05354439
78	0x3daf18d1	0.08549655
79	0x3d727574	0.059194043
80	0x3d91f135	0.07126085
81	0x3d827b3b	0.063711606
82	0x3d837ef5	0.064206995
83	0x3d838f7c	0.06423852
84	0x3df8cdc7	0.12148624
85	0x3d6385f9	0.05554769
86	0x3dfa9102	0.12234689
87	0x3d48a8d7	0.048989143
88	0x3e030509	0.1279489
89	0x3d48a863	0.04898871
90	0x3e185433	0.1487587
91	0x3d5f1d10	0.054471076
92	0x3e07fd40	0.13280201
93	0x3d764741	0.060126547
94	0x3df8d9d4	0.121509224
95	0x3d724868	0.059151083
96	0x3d9b9d9b	0.0759842
97	0x3e082696	0.1329597
98	0x3d9dd2b3	0.07706203
99	0x3dffaab3	0.1248373
100	0x3d979a0c	0.07402429
101	0x3df61f32	0.12017669
102	0x3d9af59c	0.075663775
103	0x3df63578	0.12021917
104	0x3d9bd455	0.076088585
105	0x3df4ffb7	0.11962836
106	0x3dacf12b	0.08444437
107	0x3df6c330	0.12048948
108	0x3de3b748	0.111189425
109	0x3e021b0f	0.12705635
110	0x3dbe4478	0.09290403
111	0x3e151702	0.14559558
112	0x3dad0c4d	0.08449612
113	0x3e1b6793	0.15176229
114	0x3da59582	0.08085157
115	0x3e1f9014	0.15582305
116	0x3d9efd8f	0.07763206
117	0x3e1ef005	0.15521248
118	0x3d9e648b	0.07734021
119	0x3e18286d	0.14859171
120	0x3da78efc	0.08181569
121	0x3e0b1c56	0.13585028
122	0x3da70f7f	0.081572525
123	0x3e02af4e	0.12762186
124	0x3da940a8	0.08264285
125	0x3e01df8e	0.12682936
126	0x3db11891	0.08647264
127	0x3e013a4b	0.12619893
128	0x3ddc1476	0.1074609
129	0x3e033f5e	0.12817141
130	0x3dbb915d	0.09158585
131	0x3e141fa2	0.14465192
132	0x3db29ad5	0.08720938
133	0x3e18342c	0.14863652
134	0x3dab4de6	0.08364467
135	0x3e189e9e	0.14904258
136	0x3dcba939	0.09944386
137	0x3cbc3805	0.022975931
138	0x3d59e1d7	0.053193893
139	0xbe356df7	-0.1771773
140	0xbe661d47	-0.22472106
141	0xbe4a76b4	-0.19771844
142	0x3bb1de6c	0.005428126

onnx::Conv_237 f4 [16, 3, 3, 3]
0	0xbc044dfe	-0.008075235
1	0xbcaf1674	-0.021373011
2	0xbd045684	-0.03230907
3	0xbc9e95dc	-0.019358568
4	0xbcb87e07	-0.022521032
5	0xbd253acc	-0.040339276
6	0xbc2aecca	-0.0104324315
7	0xbbcf95b1	-0.0063349833
8	0xbc9a636f	-0.018846242
9	0xba9b7ece	-0.0011863352
10	0xbcb3b063	-0.021934694
11	0xbc565ddd	-0.013083902
12	0xbc2086cd	-0.009797764
13	0xbcf364fb	-0.029711237
14	0xbceb1079	-0.028694378
15	0x3b9d799a	0.004805756
16	0xbc48c9e9	-0.01225517
17	0xbc2b4ec5	-0.010455792
18	0x3c7cf360	0.0154388845
19	0x3d0cf271	0.034410898
20	0x3d8bc809	0.06825263
21	0x3d0f1ed9	0.034941528
22	0x3d332e00	0.04374504
23	0x3d7c88d2	0.06165392
24	0x3c8a330f	0.01687005
25	0x3c761bf5	0.015021314
26	0x3d0e8686	0.03479626
27	0xbb288d78	-0.0025719088
28	0xbb2fca4d	-0.0026823462
29	0xbb4ae20e	-0.0030957493
30	0xbc90ce84	-0.0176766
31	0xbcdc6763	-0.026904767
32	0xbc907ec1	-0.017638566
33	0xbc5e2785	-0.013559227
34	0xbce15f5d	-0.027511293
35	0xbc9a9165	-0.018868158
36	0x3ae31e00	0.0017327666
37	0xba3ee7e4	-0.0007282479
38	0x3b26f007	0.0025472657
39	0xbcadb563	-0.021204656
40	0xbd187c3e	-0.03722786
41	0xbcb86a92	-0.022511754
42	0xbc96372b	-0.018336853
43	0xbd0b11c8	-0.033952504
44	0xbcc67e74	-0.02423022
45	0xbaccd030	-0.001562601
46	0x3b92a37f	0.0044750567
47	0xbb81db58	-0.0039629154
48	0x3d00bd2d	0.031430412
49	0x3d8aa980	0.06770611
50	0x3d1da36c	0.03848593
51	0x3d06eb93	0.032939505
52	0x3d910c75	0.07082454
53	0x3d2f31aa	0.042771973
54	0x00000000	0.0
55	0x80000000	-0.0
56	0x80000000	-0.0
57	0x00000000	0.0
58	0x80000000	-0.0
59	0x00000000	0.0
60	0x00000000	0.0
61	0x80000000	-0.0
62	0x80000000	-0.0
63	0x00000000	0.0
64	0x80000000	-0.0
65	0x00000000	0.0
66	0x80000000	-0.0
67	0x80000000	-0.0
68	0x00000000	0.0
69	0x80000000	-0.0
70	0x80000000	-0.0
71	0x80000000	-0.0
72	0x00000000	0.0
73	0x80000000	-0.0
74	0x80000000	-0.0
75	0x00000000	0.0
76	0x00000000	0.0
77	0x00000000	0.0
78	0x00000000	0.0
79	0x00000000	0.0
80	0x80000000	-0.0
81	0x3d4967a9	0.049171124
82	0x3d40ef78	0.047103375
83	0x39ca5369	0.00038590588
84	0xbbae880b	-0.005326276
85	0x3be74885	0.0070582055
86	0x3c5051fb	0.012714858
87	0xbd68d13f	-0.056840178
88	0xbd2e17dc	-0.042503223
89	0xbb7bcf65	-0.0038423177
90	0x3d53472c	0.051581547
91	0x3d7a55f5	0.06111713
92	0x3c777c2e	0.01510529
93	0xbc8e8f47	-0.017402304
94	0xbb89822b	-0.0041964254
95	0x3c3d60c6	0.011558717
96	0xbd8c3ffa	-0.0684814
97	0xbd4b4d91	-0.04963452
98	0xbb52cb76	-0.003216473
99	0x3d867897	0.065659694
100	0x3d98856b	0.074473225
101	0x3c9b560c	0.018961929
102	0xbd07de23	-0.03317083
103	0xbcba2de1	-0.022726955
104	0xbac25625	-0.0014826698
105	0xbd7f2fcd	-0.062301446
106	0xbd4a1bf4	-0.049343064
107	0xbb22c4eb	-0.002483661
108	0xbaf61652	-0.0018774963
109	0xbc8daa78	-0.0172932
110	0xbcfa5b90	-0.030561239
111	0x3c9b6162	0.018967334
112	0x3bb3d609	0.0054881615
113	0x3c8471f5	0.01616762
114	0x3b0a43aa	0.002109746
115	0xbd07e8b7	-0.03318092
116	0xbc738a88	-0.014864571
117	0x3b3deae9	0.0028979129
118	0xbc918933	-0.017765617
119	0xbcd4c6a5	-0.025973627
120	0x3bdf7ab6	0.006820048
121	0xbc8266f5	-0.015918234
122	0x3c3d76a7	0.011563933
123	0xbb4c5807	-0.0031180398
124	0xbd12d40b	-0.03584675
125	0xbbd2cfae	-0.0064334488
126	0x3cd86847	0.02641691
127	0x3d2568c4	0.040383115
128	0x3cbc519e	0.022988137
129	0xbcc46732	-0.023974989
130	0xbd3b2ed5	-0.04569896
131	0x3c2cc982	0.01054609
132	0xbd0126e6	-0.031531237
133	0xbd8245cc	-0.06360969
134	0xbca1f6ec	-0.019771062
135	0x3c4b56c6	0.012410825
136	0x3cafa5c0	0.02144134
137	0x3cad07a8	0.021121815
138	0x3c40ab07	0.011759526
139	0x3cc24771	0.023715707
140	0x3c836944	0.016041405
141	0xbc99c293	-0.018769538
142	0xbb4ed5e0	-0.0031560585
143	0xbc511a1f	-0.012762575
144	0x3c19c650	0.00938566
145	0x3c98ea5d	0.01866644
146	0x3cb69b31	0.022290798
147	0x3c8d384b	0.017238757
148	0x3cc5d474	0.024149157
149	0x3c698f0a	0.014255295
150	0xbb99d9c4	-0.004695149
151	0x38c9df06	9.625968e-05
152	0xbab0dec8	-0.0013494128
153	0xbd2609b6	-0.040536605
154	0xbd4c2d3e	-0.049847834
155	0xbc892697	-0.016742034
156	0x3cc1b03e	0.02364361
157	0x3c885a39	0.016644584
158	0x3c9283a4	0.017885037
159	0x3d07b366	0.033130072
160	0x3d2f670d	0.042822886
161	0x3d7b60b7	0.06137153
162	0x3ca37c36	0.01995669
163	0x3c487b94	0.012236495
164	0x3d141c63	0.036159884
165	0x3d72655b	0.05917869
166	0x3d68bfbb	0.056823473
167	0x3db02a50	0.086018205
168	0x3c7389c4	0.014864389
169	0x3ca9bb5d	0.020719225
170	0x3d2d7e39	0.042356703
171	0xbd2bbc69	-0.04192773
172	0xbd599d18	-0.053128332
173	0xbcc48e6d	-0.023993695
174	0xbcea63f4	-0.028612114
175	0xbd494dec	-0.049146578
176	0xbc976f74	-0.018485762
177	0xbd34f2c5	-0.044176836
178	0xbd521812	-0.051292486
179	0xbd2e976e	-0.042624883
180	0x3c7d750a	0.015469799
181	0x3ce412c9	0.027840989
182	0xbc83a8a8	-0.016071633
183	0xbc8c496d	-0.017124856
184	0xbacea79e	-0.0015766507
185	0xbd6db314	-0.05803211
186	0x3c220194	0.009888072
187	0x3d3e0905	0.04639532
188	0xbc33d672	-0.010976421
189	0xbcad207a	-0.02113365
190	0xbcfd641b	-0.030931523
191	0xbcad8041	-0.02117932
192	0xbc2b0c70	-0.010439977
193	0xbca5530c	-0.020181201
194	0xbb6f7d38	-0.0036543142
195	0xbc4c33c9	-0.012463518
196	0xbcbbc9ea	-0.022923429
197	0xbbf0d5d7	-0.0073497104
198	0x3cb95308	0.0226226
199	0x3d08cfc9	0.033401284
200	0x3ca73a7f	0.020413635
201	0x3d24f1e5	0.04026975
202	0x3d4cc24b	0.04998998
203	0x3d1ceb33	0.03831024
204	0x3cd0aba2	0.025472466
205	0x3d0cb75a	0.034354545
206	0x3cbc7c85	0.023008594
207	0xbc197357	-0.009365878
208	0xbba1ed03	-0.004941584
209	0xbc4415cd	-0.011968088
210	0xbc8ffa5d	-0.017575437
211	0xbcc1dda0	-0.02366525
212	0xbcb5f1ee	-0.022210088
213	0xbb9bf0c1	-0.0047589247
214	0xbc36a3eb	-0.0111474795
215	0xbc93dd04	-0.018049724
216	0x00000000	0.0
217	0x80000000	-0.0
218	0x80000000	-0.0
219	0x80000000	-0.0
220	0x80000000	-0.0
221	0x00000000	0.0
222	0x80000000	-0.0
223	0x00000000	0.0
224	0x80000000	-0.0
225	0x00000000	0.0
226	0x00000000	0.0
227	0x00000000	0.0
228	0x80000000	-0.0
229	0x80000000	-0.0
230	0x80000000	-0.0
231	0x00000000	0.0
232	0x00000000	0.0
233	0x00000000	0.0
234	0x00000000	0.0
235	0x80000000	-0.0
236	0x80000000	-0.0
237	0x80000000	-0.0
238	0x00000000	0.0
239	0x00000000	0.0
240	0x80000000	-0.0
241	0x80000000	-0.0
242	0x00000000	0.0
243	0xbcaa566b	-0.02079316
244	0x3d42ac1e	0.047527425
245	0xbc36daa7	-0.011160529
246	0xbd4d2aa0	-0.05008948
247	0x3d30246f	0.043003496
248	0x3cd6d017	0.026222272
249	0xbd5cf031	-0.053940002
250	0xbbcd94e2	-0.0062738517
251	0x3c55cd20	0.013049394
252	0xbc5a1add	-0.013312069
253	0x3d544ff9	0.05183408
254	0xbb115648	-0.0022176672
255	0xbd634fcc	-0.055496022

onnx::Conv_238 f4 [16]
0	0x3d454416	0.048160635
1	0x3b9045b8	0.0044028424
2	0x80000f38	-5.46e-42
3	0x3db1d0ea	0.08682425
4	0x3c90a3a9	0.017656164
5	0xbc294634	-0.010331679
6	0x3d76339a	0.060107805
7	0x3df18793	0.11793437
8	0x80000a6a	-3.736e-42
9	0x3dac28c3	0.08406212
10	0xbb5c0e80	-0.0033577979
11	0x3ddd8609	0.10816581
12	0x3c01e858	0.00792893
13	0x80003467	-1.8798e-41
14	0x3d9ee97b	0.077593766
15	0x3dc532dc	0.09628841

onnx::Conv_240 f4 [16, 1, 3, 3]
0	0xbe231563	-0.15926127
1	0xbd7b6487	-0.061375167
2	0xbf069da5	-0.52584296
3	0xbf4527fd	-0.7701414
4	0x400edf14	2.2323656
5	0x3ea8a9f3	0.3294216
6	0xbf8c5b05	-1.0965277
7	0x4003eb81	2.061249
8	0xbfb57ae4	-1.4178128
9	0xbeb17f71	-0.34667543
10	0x3fe855f5	1.8151232
11	0x3fd5d280	1.6704865
12	0xbe8e857d	-0.27836218
13	0x3f61428f	0.87992185
14	0x3df6aa59	0.1204421
15	0x3eb7349f	0.35782334
16	0xc007822b	-2.1173198
17	0xbff9ab69	-1.9505435
18	0x00000000	0.0
19	0x80000000	-0.0
20	0x00000000	0.0
21	0x80000000	-0.0
22	0x80000000	-0.0
23	0x80000000	-0.0
24	0x00000000	0.0
25	0x80000000	-0.0
26	0x00000000	0.0
27	0xbe1c0da6	-0.15239581
28	0x3d9e9b24	0.077444345
29	0x3deb5e6a	0.114926174
30	0x3de83f03	0.113401435
31	0xbe45ba8f	-0.19309448
32	0xc01c64ff	-2.4436643
33	0xbd61b8a8	-0.055107743
34	0x3e30e085	0.17273147
35	0x400b5736	2.177198
36	0xbe1da605	-0.15395363
37	0xbeb04570	-0.34427977
38	0xbe8d1f6d	-0.27563038
39	0x3d56d06f	0.05244487
40	0xbf1cca28	-0.61245966
41	0xbfa62d5c	-1.2982593
42	0xbeea53c7	-0.45767042
43	0x401ae0d7	2.4199731
44	0x3f88def7	1.0693043
45	0xbea0a419	-0.31375197
46	0x3ef70df2	0.48252827
47	0xbeccf87e	-0.40033334
48	0xbe12d919	-0.14340629
49	0x3fe52011	1.7900411
50	0x3f73ee27	0.95285267
51	0x3b9ddcf7	0.004817601
52	0xbf927fe8	-1.1445284
53	0xbf17ee22	-0.59347737
54	0xbf045816	-0.5169691
55	0x3f80a31d	1.0049778
56	0xbeb19c69	-0.34689644
57	0xbef6b589	-0.48185375
58	0x3fc9aa3d	1.5755078
59	0xbdca7b44	-0.09886792
60	0xbf34172e	-0.7034787
61	0x3fa0c81b	1.2561067
62	0xbf1a9130	-0.6037779
63	0x3e4d03eb	0.20021026
64	0xbf149f87	-0.5805592
65	0x3cc474e8	0.023981526
66	0x3e0b8845	0.13626201
67	0xbeeefbed	-0.4667658
68	0xbe531a7a	-0.20615569
69	0x3e670fa0	0.22564554
70	0xbee651d6	-0.4498431
71	0x3da41b1f	0.080129854
72	0x00000000	0.0
73	0x80000000	-0.0
74	0x80000000	-0.0
75	0x00000000	0.0
76	0x00000000	0.0
77	0x80000000	-0.0
78	0x80000000	-0.0
79	0x80000000	-0.0
80	0x80000000	-0.0
81	0xbe8671da	-0.26258737
82	0x3c49f5ae	0.012326641
83	0x3e00dffd	0.12585445
84	0x3e3df31a	0.18549767
85	0xbff929b8	-1.9465857
86	0x40141fd4	2.3144426
87	0x3e659383	0.22419553
88	0xbf0fadcc	-0.5612457
89	0xbd1cb157	-0.038255062
90	0x3e0a0642	0.1347895
91	0xbed423e2	-0.41433626
92	0x3df96f2e	0.12179409
93	0xbea125fe	-0.31474298
94	0xbf9653db	-1.1744341
95	0xbed1c8d9	-0.40973547
96	0xbe64b8a9	-0.22336067
97	0x40256ec0	2.5848846
98	0x3edd09dc	0.43171585
99	0x3ddc4ff9	0.10757441
100	0xc004c4db	-2.074515
101	0xc0799129	-3.8994849
102	0x3e812e8d	0.25230828
103	0x3eeeef1e	0.46666807
104	0xbe3de4b6	-0.18544278
105	0xbf60cade	-0.8780955
106	0x404965f3	3.1468475
107	0x404efac1	3.2340548
108	0xbe57382a	-0.21017519
109	0x3e03aea3	0.12859587
110	0xbe5e7d32	-0.21727446
111	0x3e803e2f	0.25047442
112	0x402c1103	2.6885383
113	0x3eebb9ca	0.46040183
114	0xbea42a12	-0.32063347
115	0xbfdf84f9	-1.7462455
116	0xbf2abead	-0.666972
117	0x80000000	-0.0
118	0x00000000	0.0
119	0x00000000	0.0
120	0x00000000	0.0
121	0x80000000	-0.0
122	0x00000000	0.0
123	0x80000000	-0.0
124	0x00000000	0.0
125	0x80000000	-0.0
126	0x3d209bf0	0.039211214
127	0xbe673ac2	-0.22581008
128	0x3dd6de8b	0.104916655
129	0xbfcea144	-1.6142964
130	0x3fa39664	1.278027
131	0x3e3d6bb9	0.18498124
132	0xbea6949a	-0.3253525
133	0x3f2a51da	0.66531146
134	0xbe930c25	-0.28720203
135	0xbe356661	-0.17714836
136	0x3de1329c	0.10995981
137	0x3c351a3c	0.011053618
138	0xc00cf234	-2.202283
139	0x3f58c442	0.84674466
140	0x3fd44466	1.6583374
141	0xc096f67d	-4.717589
142	0xbfe10f7f	-1.7582854
143	0x40c99d77	6.300472

onnx::Conv_241 f4 [16]
0	0x3da0eb0f	0.07857334
1	0x3dc2ca2f	0.0951122
2	0x8b2fcd41	-3.385819e-32
3	0x3c84eb39	0.016225444
4	0xbc0699f0	-0.0082154125
5	0x3e163a61	0.14670707
6	0xbd6a03cc	-0.057132527
7	0x3e4d3088	0.20038044
8	0x8bb4744e	-6.9508474e-32
9	0x3e737eb7	0.23778807
10	0x3d0a6f12	0.03379733
11	0x3cf5a9c1	0.029988172
12	0x3d8369b2	0.06416644
13	0x8b9148df	-5.596161e-32
14	0x3e4b69e4	0.19864613
15	0x3dc06f32	0.09396209

onnx::Conv_243 f4 [32, 16, 1, 1]
0	0x3d0b4d83	0.034009468
1	0x3b309e82	0.0026949947
2	0x06aa83f5	6.4140786e-35
3	0xbd611ed2	-0.054961033
4	0x3dd28b00	0.102804184
5	0x3e202e4d	0.15642662
6	0xbc9daee3	-0.019248432
7	0xbc1f69a2	-0.009729775
8	0x081f78fb	4.7989534e-34
9	0xbd40e893	-0.0470968
10	0xbe02ce9f	-0.12774132
11	0xbd323b6f	-0.04351371
12	0xbdfeb2d5	-0.12436453
13	0x06c9b7f7	7.587811e-35
14	0x3dfeb901	0.124376304
15	0xbe2df001	-0.16986085
16	0x3d486c50	0.04893142
17	0x3d630593	0.055425238
18	0x075fd4c4	1.6839182e-34
19	0x3dd9f161	0.106417425
20	0x3e35a3bb	0.1773824
21	0x3e9096b9	0.28239992
22	0x37cef679	2.4671886e-05
23	0xbc8d20b0	-0.0172275
24	0x87c1e051	-2.9171254e-34
25	0x3c5b0a48	0.01336915
26	0xbe559704	-0.20858389
27	0xbe8f4a3e	-0.2798633
28	0xbe5dd733	-0.21664123
29	0x85bb2e18	-1.7602328e-35
30	0x3e9b33da	0.30312997
31	0xbf0e572e	-0.55601776
32	0x3ca85103	0.020546442
33	0x3bb6b335	0.0055755624
34	0x85fa82bb	-2.355791e-35
35	0xbc971023	-0.018440312
36	0x3dcbad6d	0.09945188
37	0x3de227d5	0.110427536
38	0xbdb8d340	-0.09024668
39	0x3b137ad4	0.0022503631
40	0x070510ab	1.0010706e-34
41	0xbd557816	-0.052116476
42	0xbdf20cd0	-0.1181885
43	0xbd3cf17f	-0.046128746
44	0xbdd946fe	-0.10609244
45	0x865753ef	-4.049867e-35
46	0xbd4f44ca	-0.05060271
47	0x3dec20b1	0.11529673
48	0x3e6c9706	0.23104486
49	0x3ea353a4	0.3189975
50	0x068c832c	5.2854887e-35
51	0x3e011d98	0.12608945
52	0xbdea7b11	-0.11449254
53	0x3e8edf28	0.2790463
54	0xbe2ae432	-0.16688612
55	0x3c80695f	0.015675245
56	0x861e1d7a	-2.9738153e-35
57	0xbc38bfe2	-0.011276217
58	0x3c727a79	0.014799708
59	0xbdf3698c	-0.11885366
60	0xbee15c61	-0.44015792
61	0x858230ee	-1.2243115e-35
62	0x3d5ee25d	0.054415096
63	0x3cfcd29b	0.030862143
64	0xbf3a18d3	-0.7269413
65	0x3e0f81b6	0.14014325
66	0x05e7d495	2.1801226e-35
67	0xbea77fd4	-0.32714713
68	0xbfc4507e	-1.5337064
69	0xbef7b553	-0.48380527
70	0xbd59da88	-0.053186923
71	0x3c0d0d82	0.008609178
72	0x0807f6eb	4.0915335e-34
73	0x3d96a1e0	0.07355094
74	0xbf31b02b	-0.69409436
75	0x3e97d3cb	0.29653773
76	0xbf566164	-0.83742356
77	0x0758325d	1.6264834e-34
78	0x3dcf5c96	0.10125081
79	0x3db277c1	0.087142475
80	0x3d0fef5e	0.035140388
81	0xba2cbd70	-0.00065895077
82	0x85b12abc	-1.6660698e-35
83	0x3b8455f3	0.0040385663
84	0xb9c16c6c	-0.0003689261
85	0xbb52f5d2	-0.0032189977
86	0x3ee0d830	0.43914938
87	0x3f1bab22	0.60808
88	0x87122bb0	-1.0996658e-34
89	0xbc75316b	-0.014965395
90	0x39ad4125	0.00033045668
91	0x3adc4a1f	0.0016806758
92	0x3c0f3be6	0.008742308
93	0x86a4412a	-6.1785694e-35
94	0xbbc33471	-0.0059571792
95	0xbbb779d6	-0.005599241
96	0x3d2cee2a	0.04221932
97	0x3c0e1121	0.008671076
98	0x07584d23	1.6272702e-34
99	0xbd1d85b8	-0.038457602
100	0x3e078140	0.13232899
101	0x3e65af79	0.22430219
102	0xbe01c3fd	-0.1267242
103	0x3da0a5dc	0.07844135
104	0x084aa370	6.0979284e-34
105	0xbdbd5325	-0.09244374
106	0xbe5e8047	-0.21728621
107	0xbde207d0	-0.11036646
108	0xbe5a0307	-0.21290217
109	0x077d0118	1.9033926e-34
110	0xbdc281ff	-0.09497451
111	0x3e359ed8	0.17736375
112	0x3e62fa08	0.22165692
113	0xbf3754de	-0.7161387
114	0x06554c61	4.0116962e-35
115	0x3e0a3efc	0.13500589
116	0xbee30cb6	-0.44345635
117	0xbf19b82f	-0.60046667
118	0xbe2fe39c	-0.1717667
119	0x3e7bd786	0.24593934
120	0x8789b67c	-2.0720724e-34
121	0x3ceb3a83	0.028714424
122	0x3d12754c	0.035756394
123	0xbd1a53db	-0.037677627
124	0x3e2231e0	0.15839338
125	0x8528c4f2	-7.935495e-36
126	0x3d72bd06	0.059262298
127	0xbc4b5ed1	-0.012412743
128	0xbd6b69bb	-0.05747388
129	0xbba8985a	-0.005145115
130	0x885b611f	-6.601708e-34
131	0xbda2ba1f	-0.07945656
132	0x3b846795	0.0040406683
133	0x3d824497	0.06360739
134	0x3b4166cd	0.0029510737
135	0x3d300ad0	0.04297906
136	0x8897daad	-9.139392e-34
137	0xbd84e239	-0.06488461
138	0xbd27a265	-0.040926356
139	0xbdaadd89	-0.08343036
140	0xbd633030	-0.055465877
141	0x874ca7b7	-1.5396541e-34
142	0x3f5ec9f3	0.870269
143	0xbd86417a	-0.065554574
144	0xbed442e8	-0.41457295
145	0x3cbe081b	0.023197224
146	0x84be9a73	-4.4810625e-36
147	0xbac49273	-0.0014997259
148	0x3e9c8003	0.30566415
149	0x3daf2b6c	0.08553204
150	0x3d7c009e	0.061524026
151	0x3e3e0db0	0.18559909
152	0x086050d7	6.7502575e-34
153	0x3d30d4ba	0.04317162
154	0xbd40fd68	-0.047116667
155	0x3dd37c19	0.10326404
156	0x3df9fe82	0.12206747
157	0x862b5571	-3.2224298e-35
158	0xbd677515	-0.056508143
159	0xbd6bee9b	-0.0576006
160	0x3d1f142a	0.03883759
161	0x3c130ac1	0.008974732
162	0x05981dc2	1.4304943e-35
163	0xbd319555	-0.043355305
164	0x3dc1931b	0.09451886
165	0x3df2451c	0.11829588
166	0xbd8b7ec1	-0.06811286
167	0xbd1c5664	-0.038168326
168	0x872f60a9	-1.3193943e-34
169	0xbd52f07b	-0.05149887
170	0xbdf66abc	-0.12032077
171	0xbc857ad3	-0.016293919
172	0xbdbdf554	-0.09275308
173	0x85da01bc	-2.0501259e-35
174	0x3de3935f	0.11112093
175	0xbe3d8e90	-0.18511415
176	0x3cb6d6d8	0.022319242
177	0xbd4ce336	-0.050021373
178	0x06f6eefa	9.288606e-35
179	0x3d70d0e1	0.058792952
180	0xbd0bbcb9	-0.034115527
181	0x3d4df95f	0.050286647
182	0xbd009eb1	-0.03140134
183	0x3c9fa291	0.019486697
184	0x084c3dbf	6.14616e-34
185	0xb9a7d1ac	-0.0003200894
186	0xbd7a469a	-0.061102487
187	0xbe00f708	-0.12594235
188	0xbc6ef569	-0.0145848775
189	0x85f5db17	-2.312017e-35
190	0x3e0caed3	0.13738565
191	0xbeea30c5	-0.45740333
192	0x3de0d4d1	0.109780915
193	0x3b15dc68	0.0022866968
194	0x06ba4359	7.006438e-35
195	0xbdb0bb9a	-0.08629532
196	0x3e5ee9ac	0.21768826
197	0x3e970481	0.29495624
198	0xbcf35a6d	-0.029706204
199	0x3d1fa4c9	0.03897551
200	0x878de3bc	-2.1349172e-34
201	0xbcc70991	-0.024296554
202	0xbe8b7853	-0.27240238
203	0xbe1c75ab	-0.15279262
204	0xbe8f973b	-0.28045067
205	0x02f4db62	3.5978497e-37
206	0x3d393f2c	0.04522626
207	0xbd88006f	-0.06640708
208	0x3c4fc2f6	0.01268076
209	0x3c368280	0.011139512
210	0x86bf9c1c	-7.2075597e-35
211	0xbdb60e4a	-0.08889444
212	0x3dae9462	0.085243955
213	0x3e002d2e	0.12517235
214	0xbb09c09f	-0.0021019352
215	0x3bf2b6f2	0.0074070627
216	0x07cb9f50	3.063768e-34
217	0xbeba693c	-0.36408412
218	0xbda7f349	-0.082007
219	0x3db580af	0.08862435
220	0xbc9e19d3	-0.019299423
221	0x853b4796	-8.805846e-36
222	0x3e9a7f7c	0.30175388
223	0xbd4d4210	-0.05011183
224	0xbd01dcbd	-0.031704653
225	0xbaedceb5	-0.0018143269
226	0x878aba87	-2.0873563e-34
227	0xbd8e7d3f	-0.069574825
228	0xbc20260e	-0.009774698
229	0xbbe0a867	-0.0068560126
230	0xbd4960f1	-0.049164716
231	0x3d3070d2	0.043076344
232	0x0906432d	1.616125e-33
233	0xbf5a823e	-0.85354984
234	0xbb585775	-0.0033011113
235	0xbdc0a26d	-0.0940598
236	0xbd30ba5d	-0.04314648
237	0x8726fce0	-1.2562765e-34
238	0xbd99070b	-0.074720465
239	0x3d95b123	0.07309177
240	0xbdf4f522	-0.11960818
241	0x3eb83e02	0.35984808
242	0x86088d60	-2.5682623e-35
243	0x3d0d031b	0.03442679
244	0xbde88460	-0.113533735
245	0xbe3b5016	-0.18292269
246	0xbd149031	-0.036270324
247	0xbbc03404	-0.0058655757
248	0x85f94cad	-2.3444014e-35
249	0xbdb39caf	-0.087701194
250	0x3de6ebeb	0.112754665
251	0x3f01e460	0.507391
252	0x3e9412dd	0.28920642
253	0x870a45b0	-1.0402445e-34
254	0xbd3c8ac2	-0.046030767
255	0x3ba15fcf	0.0049247514

onnx::Conv_244 f4 [32]
0	0x3d97effc	0.0741882
1	0xbc956952	-0.018238697
2	0x3db23d2f	0.08703076
3	0xbd8b9206	-0.06814961
4	0x3e3f0aaa	0.18656412
5	0x3a2eeb00	0.0006672591
6	0x3d878d43	0.066187404
7	0x3e139760	0.14413214
8	0xbe03ff39	-0.12890328
9	0x3d6b83ce	0.057498746
10	0x3db31dc5	0.087459125
11	0x3d77ab3c	0.060466036
12	0x3d553785	0.0520549
13	0x3db41e0d	0.08794794
14	0x3e695d76	0.22789559
15	0xbc4d49d2	-0.012529807
16	0xbd14343a	-0.03618262
17	0x3d2e8a06	0.0426121
18	0x3d1b9588	0.0379844
19	0xbde016c0	-0.10941839
20	0x3d829cb2	0.063775435
21	0x3de633e6	0.112403676
22	0xbda63703	-0.081159614
23	0x3d7848e8	0.060616404
24	0x3cc3de64	0.023909755
25	0xbd901c2e	-0.07036625
26	0x3d7b81ce	0.06140309
27	0x3d27f380	0.041003704
28	0xbd07a9bf	-0.033120867
29	0xbd15736d	-0.03648703
30	0x3e0e2c04	0.13883978
31	0x3d180858	0.037117332

onnx::Conv_246 f4 [32, 1, 3, 3]
0	0xbf82114f	-1.0161532
1	0xbeaf8645	-0.34282127
2	0x3f49d674	0.78842854
3	0xbf30c28e	-0.69046867
4	0x40165f79	2.3495772
5	0x3e0435fc	0.12911218
6	0x3f62f511	0.8865519
7	0x3c947a12	0.018124614
8	0xbf9fb5cd	-1.2477356
9	0x3e0a04d2	0.13478401
10	0xbe9151dc	-0.28382766
11	0xbe178e93	-0.14800481
12	0xbe84becd	-0.2592682
13	0xbf2f4358	-0.68462133
14	0xbf0e88ea	-0.55677664
15	0xbea65439	-0.32486132
16	0xbf0bded3	-0.5463688
17	0xbefda11f	-0.49536988
18	0xbed84c3b	-0.4224566
19	0xbf68ecb2	-0.9098617
20	0x3f0b5289	0.54422814
21	0x3fe089eb	1.7542089
22	0xbf8e514a	-1.1118557
23	0xc0108661	-2.2582018
24	0xbe8b6937	-0.2722871
25	0x400ab113	2.1670578
26	0xbe890fc3	-0.26769838
27	0xbd844942	-0.06459285
28	0xbe0b50d4	-0.13605052
29	0xbcc87739	-0.024470912
30	0xbe2dc702	-0.16970447
31	0xbe84306b	-0.2581819
32	0xbe2c7701	-0.16842271
33	0xbe823a74	-0.2543522
34	0xbe464144	-0.19360834
35	0xbe7f4ecf	-0.24932407
36	0x3f467726	0.77525556
37	0x3f440dfe	0.7658385
38	0x3f40e667	0.75351566
39	0x3f934fc9	1.1508723
40	0x3fad6101	1.3545228
41	0x3f7bee8e	0.9841088
42	0x3f5c5ae2	0.86076176
43	0x3f937ddc	1.1522784
44	0x3f1d1fc8	0.6137662
45	0xbf4b643f	-0.7944984
46	0xbfa5f58e	-1.2965562
47	0xbf6b37d2	-0.9188205
48	0xbf18c313	-0.5967266
49	0xbf0809f7	-0.53140205
50	0xbe425181	-0.18976404
51	0x3fb63ae5	1.4236723
52	0x4005152e	2.0794177
53	0x3f8b23b8	1.0870275
54	0x3f1e3c88	0.61811113
55	0xbf00a683	-0.50254077
56	0xbf25b05c	-0.6472223
57	0x3e36f714	0.1786769
58	0x3ff80601	1.9376832
59	0x3da92b33	0.08260193
60	0xbf9eaf44	-1.2397237
61	0xbf8108e3	-1.0080837
62	0x3f0acbc5	0.5421718
63	0xbde30e78	-0.11086744
64	0xbe4b0680	-0.19826698
65	0xbe1cd335	-0.15314944
66	0xbe483d0b	-0.19554536
67	0xbe1cb775	-0.15304358
68	0xbe262f71	-0.16229035
69	0xbe55cc05	-0.20878609
70	0xbeb1cdac	-0.34727228
71	0xbd9b3ed1	-0.07580341
72	0xbe489b6a	-0.19590536
73	0xbef33e70	-0.47508574
74	0xbe86b0df	-0.26306817
75	0xbe81cb52	-0.25350434
76	0xbf203e50	-0.6259508
77	0xbf049e54	-0.5180409
78	0xbcfafc47	-0.030637873
79	0xbea5ed12	-0.32407433
80	0xbec5635d	-0.3855237
81	0x3f5faee0	0.87376213
82	0x3e673ab5	0.22580989
83	0xbf521352	-0.8206073
84	0x3f900d66	1.1254089
85	0x3e28800e	0.16455099
86	0xbf8bb64d	-1.0915009
87	0x3f01238d	0.5044487
88	0xbd4f6c2b	-0.050640266
89	0xbf3c773a	-0.73619425
90	0x3f48d14e	0.78444374
91	0xbf630757	-0.88683075
92	0xbf31bc0f	-0.6942758
93	0xbfb50625	-1.41425
94	0xbfbe1719	-1.4850799
95	0x3fd9b50b	1.7008375
96	0x3eb08582	0.34476858
97	0x3fe253f3	1.7681869
98	0xbd69a2a3	-0.057039868
99	0x3f06cd98	0.5265746
100	0x3f26f842	0.6522256
101	0xbf393bd9	-0.72356945
102	0x3f54348c	0.8289268
103	0x3e491ca7	0.19639836
104	0xbfa10932	-1.2580931
105	0x3f1ad86e	0.60486495
106	0xbe36cec0	-0.17852306
107	0xbf3271f4	-0.6970513
108	0xbe07d21e	-0.13263747
109	0xbe8fbc22	-0.2807322
110	0x3e793c2d	0.24339361
111	0x3f77c5c9	0.9678617
112	0x3fa011f3	1.2505478
113	0x3f0c4611	0.5479441
114	0xbec4bf47	-0.38427183
115	0xbfaa5b9a	-1.3309205
116	0xbf323373	-0.69609755
117	0x3eafff95	0.3437468
118	0x3f105c44	0.56390786
119	0x3eae644c	0.34060895
120	0x3ee29df8	0.44261146
121	0x3f6d339e	0.92656887
122	0x3f16e500	0.58943176
123	0x3ea5e0d1	0.32398084
124	0x3f11eb1c	0.56999373
125	0x3ec7d0d1	0.39026502
126	0xbbfa0c94	-0.007630894
127	0xbeadaaf7	-0.33919498
128	0xbea7607e	-0.32690805
129	0xbe8b973c	-0.2726382
130	0xbf1b2ec0	-0.6061821
131	0xbeda9da7	-0.42698404
132	0xbe9b0d3b	-0.30283532
133	0xbedd59ad	-0.4323248
134	0xbe4d9cf8	-0.2007941
135	0xbebac287	-0.36476538
136	0xbef6647a	-0.48123533
137	0xbe32e277	-0.17469202
138	0xbeb5dce4	-0.3552009
139	0xbf072329	-0.52788025
140	0xbe06795d	-0.13132234
141	0xbe7618f4	-0.24032956
142	0xbe2f2a9b	-0.17106096
143	0xbddf5789	-0.10905368
144	0x3ea58dca	0.3233474
145	0x3f27e5a5	0.65584785
146	0x3ea152df	0.31508538
147	0x3f20e220	0.6284504
148	0x3f661090	0.8986902
149	0x3eea09cd	0.45710602
150	0x3ee9be10	0.4565282
151	0x3f301a31	0.68789965
152	0x3e9d76e2	0.30754763
153	0x3f1f8f25	0.62327796
154	0xbee9a763	-0.45635518
155	0xbf2aadf0	-0.6667166
156	0x3ef641b7	0.4809701
157	0x3f5b120a	0.855744
158	0xbf681389	-0.9065481
159	0xbd95117c	-0.072787255
160	0x3f5be4fb	0.8589627
161	0xbcf007b2	-0.029300544
162	0x3e1d97bf	0.15389918
163	0x3deed011	0.11660779
164	0x3e01f71d	0.12691922
165	0x3df8cf10	0.12148869
166	0x3eb006d9	0.34380224
167	0x3e63b25a	0.22236004
168	0x3db4963c	0.088177174
169	0x3e651a9d	0.22373433
170	0x3d9395f2	0.07206334
171	0x3e0bde87	0.13659106
172	0x3ec5bbbb	0.3861979
173	0x3e9c5474	0.30533183
174	0x3e82ba4a	0.25532752
175	0x3f04f16c	0.5193088
176	0x3ea58e2d	0.32335034
177	0x3e48e334	0.19617921
178	0x3e833e49	0.25633457
179	0x3df09ca3	0.11748626
180	0x3f26394c	0.6493118
181	0x3fb68ea3	1.4262279
182	0x3e5cf095	0.2157615
183	0xbfa58f96	-1.2934444
184	0xbfa20726	-1.2658432
185	0x3ebb7d57	0.36619064
186	0x3efbbff8	0.49169898
187	0xbe06a34b	-0.13148229
188	0xbed5b62b	-0.41740546
189	0xbe4797a7	-0.19491445
190	0xbea015ed	-0.31266728
191	0xbe2a7889	-0.16647543
192	0xbe800615	-0.2500464
193	0xbf101238	-0.562778
194	0xbeb73e98	-0.35789943
195	0xbd93762a	-0.072002724
196	0xbe81fd2b	-0.25388464
197	0xbe50c803	-0.20388798
198	0xbdab5118	-0.08365077
199	0xbd9d3e01	-0.07677842
200	0xbca0d5c6	-0.019633185
201	0x3e6563a4	0.22401291
202	0x3ea1fbcf	0.31637427
203	0x3e555726	0.20834026
204	0x3e515cb9	0.20445527
205	0x3ee50a4b	0.44734415
206	0x3e80fd5f	0.25193307
207	0xbe4ef0ad	-0.20208998
208	0xbf19a94c	-0.6002395
209	0xbee07efa	-0.43846875
210	0xbeeb63be	-0.45974535
211	0xbf6c569d	-0.9231966
212	0xbefd4e8e	-0.49473995
213	0xbe785bef	-0.2425382
214	0xbec8938c	-0.3917507
215	0xbe2b9872	-0.16757372
216	0xbeeca3be	-0.46218675
217	0xbf537868	-0.826056
218	0xbdad828c	-0.084721655
219	0xbe733e48	-0.23754227
220	0xbe795c77	-0.24351679
221	0xbe971fa8	-0.2951634
222	0xbe469e6b	-0.19396369
223	0xbdb6c5d8	-0.089244545
224	0xbc0e7bab	-0.008696477
225	0x3e62a7f5	0.22134383
226	0x3e9b44a7	0.30325815
227	0x3dcb12a2	0.09915663
228	0x3e52ff88	0.2060529
229	0x3e959ff5	0.292236
230	0x3dea37a1	0.114363916
231	0x3d95daf3	0.07317152
232	0x3d492585	0.049108047
233	0x3d5b3c09	0.05352405
234	0xbf863e7f	-1.0487822
235	0xbf9b4c97	-1.2132748
236	0xbc2fe99e	-0.010736851
237	0xbeabc97c	-0.33552158
238	0xbf073074	-0.5280831
239	0x3eb09c69	0.3449433
240	0x3e68fceb	0.2275273
241	0x3ed2056a	0.41019756
242	0x3e5cf3f8	0.21577442
243	0x3f06edd0	0.52706623
244	0x3fbb86a4	1.4650464
245	0x3ebd08ab	0.36920676
246	0x3e261f2d	0.1622283
247	0xbfa43b99	-1.2830688
248	0xbf96bb9e	-1.1776006
249	0xbe32d2ea	-0.1746327
250	0xbe1adc95	-0.15123208
251	0x3ea33ce8	0.31882405
252	0xbe9f3a44	-0.3109914
253	0xbee4dcdf	-0.4469976
254	0xbe694d2f	-0.2278335
255	0xbeb4aaf3	-0.35286674

onnx::Conv_247 f4 [32]
0	0xbd9bb8b3	-0.07603588
1	0x3da95d7e	0.08269785
2	0x3d891931	0.06694258
3	0x3db08bd8	0.08620423
4	0xbe219256	-0.15778479
5	0x3dc79eb5	0.09747068
6	0xbadaef98	-0.0016703485
7	0x3e2084cf	0.15675662
8	0x3e2f21e1	0.17102768
9	0xbc7dcec4	-0.015491191
10	0xbb1eb53e	-0.0024216915
11	0xbb59a1d6	-0.0033208034
12	0xbc93483e	-0.017978784
13	0xbeaa367f	-0.33244702
14	0x3e0dfbd2	0.13865593
15	0x3da3be70	0.079953074
16	0x3aa05f50	0.0012235437
17	0xbcfaf4bd	-0.030634278
18	0x3a7edc00	0.00097221136
19	0xbb8f21c8	-0.0043680407
20	0xbc1cd012	-0.009571092
21	0x3e86d1e3	0.26332006
22	0x3b8d7080	0.0043163896
23	0x3e897b1b	0.26851735
24	0x3e29af63	0.16570811
25	0x3a025220	0.0004971344
26	0x3e2a7902	0.16647723
27	0xbc2a6240	-0.010399401
28	0x3dd24b70	0.10268295
29	0x3ad5a340	0.0016299263
30	0x3e44cb8a	0.19218269
31	0x3e4cc756	0.19997916

onnx::Conv_249 f4 [32, 32, 1, 1]
0	0xbcc816a4	-0.024424858
1	0xbd09fb94	-0.03368719
2	0x3e0aa483	0.13539319
3	0xbd77608b	-0.060394805
4	0xbea2e514	-0.31815398
5	0xbda958d8	-0.08268899
6	0xbbe68b83	-0.007035674
7	0xbe2aba6e	-0.1667268
8	0x3e1e22da	0.15442982
9	0x3e071ff3	0.13195781
10	0x3d65c35e	0.05609452
11	0x3e2804b3	0.16408043
12	0x3da08ec2	0.07839729
13	0x3e9f8099	0.311528
14	0x3e10872d	0.14114065
15	0xbe83c5fa	-0.25736982
16	0xbc413155	-0.011791547
17	0x3e1b3186	0.1515561
18	0x3e9690b5	0.29407278
19	0xbda22b2c	-0.07918391
20	0x3cfffa38	0.031247243
21	0x3cb08ac3	0.021550542
22	0x3d190caf	0.03736561
23	0x3dc2c593	0.095103405
24	0x3d593a8d	0.053034354
25	0xbe375046	-0.17901716
26	0xbe360bf0	-0.17777991
27	0x3d69bd34	0.057065204
28	0x3de024a4	0.10944489
29	0xbdddef24	-0.10836628
30	0x3e930a37	0.2871873
31	0x3d9daa52	0.07698502
32	0x3daa5053	0.08316102
33	0xbda182d2	-0.0788628
34	0x3d33976e	0.043845586
35	0xbd702ea7	-0.05863824
36	0xbd910399	-0.07080764
37	0xbd8d6ad0	-0.069051385
38	0x3db3c7d5	0.08778349
39	0xbb4dcfe9	-0.0031404442
40	0xbdd09ada	-0.101857856
41	0xbc497a59	-0.012297236
42	0x3d47ab4e	0.048747353
43	0xbc1660b6	-0.009178331
44	0x3dd062ef	0.1017512
45	0xbd7901da	-0.06079278
46	0xbe0bfbfb	-0.13670342
47	0xbd8a622a	-0.067570046
48	0xbd241cd1	-0.040066544
49	0xbc083da1	-0.008315475
50	0xbe107a62	-0.14109185
51	0x3d359296	0.04432925
52	0x3da2bcfd	0.07946203
53	0x3d4305fc	0.04761313
54	0x3d502982	0.050820835
55	0x3d14a3cb	0.036289018
56	0xbbf533d0	-0.007482983
57	0x3e328a60	0.17435598
58	0x3d4a5922	0.04940141
59	0x3dbb35f6	0.091411516
60	0xbe1b2fb2	-0.15154913
61	0x3e272e07	0.16326152
62	0x3dcc4d46	0.09975676
63	0xbdd027d5	-0.10163847
64	0xbc67b7e8	-0.014142968
65	0xbc71c5c3	-0.014756623
66	0xbc6ed0c8	-0.0145761445
67	0x3da1d0c3	0.07901146
68	0xbed56d04	-0.41684735
69	0xbf06c568	-0.5264497
70	0xbd5fdeb4	-0.054655746
71	0xbebcd781	-0.36883166
72	0x3b105ac2	0.0022026752
73	0xbca4ffbd	-0.020141477
74	0xbb918389	-0.004440729
75	0x3d8bc14e	0.06823979
76	0xbd6082f7	-0.054812398
77	0xba8b4c65	-0.0010627626
78	0x3d9d6597	0.07685392
79	0xbe3ee73f	-0.18642901
80	0xbe6f0665	-0.23342283
81	0x3ca214fe	0.0197854
82	0x3bda747e	0.006666719
83	0x3d0c8845	0.034309644
84	0xbd40d314	-0.0470763
85	0xbcc8e1ca	-0.024521727
86	0xbc537387	-0.012905962
87	0xbe925bf6	-0.28585786
88	0xbd0b226d	-0.033968378
89	0xbeba75b8	-0.36417937
90	0x3b89b59a	0.004202557
91	0xbcb5dd61	-0.022200288
92	0xbd64198e	-0.055688433
93	0x3d685f12	0.05673129
94	0xbe243b20	-0.1603818
95	0x3e446678	0.19179714
96	0x3e1b30d6	0.15155348
97	0x3c5d8468	0.013520338
98	0xbd99f758	-0.0751788
99	0xbd0bc6a1	-0.034124974
100	0xbd4dc2b3	-0.050234508
101	0x3c72c2d7	0.014816961
102	0xbcca4989	-0.024693267
103	0x3d1fa98f	0.038980063
104	0xbe3f2eaa	-0.18670145
105	0x3d0f44c6	0.034977697
106	0x3e10245b	0.14076369
107	0x3d9c1204	0.07620624
108	0x3e169aa1	0.14707424
109	0xbd09af52	-0.033614464
110	0xbd79a0de	-0.06094443
111	0xbd6a2e2f	-0.05717295
112	0xbabc17ad	-0.0014350318
113	0x3a3871e5	0.00070360146
114	0x3e54d6e9	0.20785107
115	0x3d766a64	0.060160056
116	0xbc8c66a0	-0.01713878
117	0x3d9c2799	0.0762474
118	0xbe50ff01	-0.20409776
119	0x3e1ec4d5	0.15504773
120	0x3dd5e151	0.10443366
121	0x3d530e45	0.05152728
122	0x3a903e97	0.0011004981
123	0x3e273d52	0.16331986
124	0xbe02a478	-0.12758052
125	0x3d48a009	0.048980746
126	0xbd674027	-0.056457665
127	0xbe3b5942	-0.18295768
128	0xbe047dfa	-0.12938681
129	0x3e21ceb7	0.15801512
130	0xbd948ff9	-0.07254023
131	0x3e01f610	0.12691522
132	0xbe953107	-0.29138967
133	0xbeb1cc0d	-0.3472599
134	0xbdedb57d	-0.11606882
135	0xbddee48d	-0.10883436
136	0x3d7067a8	0.058692604
137	0x3cad68ff	0.02116823
138	0xbd79e5f0	-0.0610103
139	0xbdfd5388	-0.12369448
140	0xbd2141bf	-0.03936934
141	0xbdf1f542	-0.11814357
142	0x3da5fa85	0.081044234
143	0x3e01d3d8	0.12678468
144	0x3eb25a96	0.34834737
145	0xbe2da9b5	-0.1695927
146	0x3c7e4b71	0.015520916
147	0xbecc833d	-0.39943877
148	0xbd9e1481	-0.077187546
149	0xbd94e1ba	-0.072696164
150	0x3ed64954	0.4185282
151	0xbe249436	-0.16072163
152	0xbd5ae734	-0.05344315
153	0x3ec2bfe9	0.3803704
154	0xbe780f0a	-0.24224487
155	0xbd16e974	-0.036843732
156	0xbdba1c04	-0.09087375
157	0xbd93e183	-0.07220747
158	0x3ea1df73	0.3161579
159	0xbd89778e	-0.06712256
160	0x3db424b5	0.08796064
161	0xbe735068	-0.23761141
162	0x3d822799	0.06355209
163	0x3d9e3b15	0.07726113
164	0xbe8410f0	-0.25794172
165	0xbead1611	-0.33805898
166	0x3da662db	0.08124324
167	0x3cffedae	0.031241264
168	0xbda7d846	-0.08195548
169	0x3e1c6b76	0.15275368
170	0x3c29516e	0.010334356
171	0x3ea5a329	0.32351044
172	0x3cfd2eb9	0.030906068
173	0x3c7215d7	0.014775715
174	0xbdd60d2d	-0.10451732
175	0x3d9209a8	0.07130748
176	0xbe929021	-0.28625587
177	0x3e4c3a73	0.19944172
178	0xbe00a037	-0.12561117
179	0x3e91e4db	0.28494915
180	0x3d1ddf08	0.038542777
181	0x3dc3b7f7	0.09556573
182	0xbdd032f6	-0.1016597
183	0xbd86db6d	-0.06584821
184	0x3e1781ff	0.14795683
185	0x3d1f37af	0.038871463
186	0x3e75f36c	0.2401864
187	0xbd1ac523	-0.03778566
188	0xbb72caa0	-0.0037047043
189	0xbd13e5d0	-0.03610784
190	0x3f00fe32	0.5038787
191	0x3dda8482	0.10669805
192	0xbcd9ec88	-0.026602045
193	0x3d4aa92e	0.04947775
194	0x3e0480dc	0.12939781
195	0x3c6804a8	0.014161266
196	0xbdae8ef9	-0.085233636
197	0x3cf30893	0.029667174
198	0x3e01a595	0.12660821
199	0x38bebdda	9.0952686e-05
200	0xbdf8b767	-0.12144356
201	0x3d639892	0.055565424
202	0xbd706c1b	-0.058696847
203	0x3d1e97d3	0.03871901
204	0x3d9abc45	0.07555441
205	0x3c4f0ecb	0.012637804
206	0xbe40d262	-0.18830255
207	0xbd959612	-0.07304014
208	0x3d0da4fe	0.034581177
209	0x3e1818e2	0.14853242
210	0x3dc590d5	0.09646765
211	0x3d94e6b9	0.07270569
212	0x3dd746ca	0.10511549
213	0xbd74247e	-0.059605114
214	0xbe3c6633	-0.18398361
215	0x3e567372	0.20942476
216	0x3daebfa2	0.08532645
217	0x3d62e911	0.05539805
218	0x3d23d25c	0.039995536
219	0x3cf98489	0.030458705
220	0xbe41ebe4	-0.18937641
221	0x3d1378e3	0.03600396
222	0xbd30ba7a	-0.043146588
223	0xbe1d51ac	-0.15363187
224	0xbde7863f	-0.11304902
225	0xbd483189	-0.048875365
226	0xbe1177df	-0.14205883
227	0xbe419d6b	-0.18907706
228	0xbe5ca5dc	-0.21547645
229	0x3d271532	0.040791698
230	0xbd5b30bf	-0.053513285
231	0xbe10ad59	-0.14128627
232	0x3eafdc6d	0.3434786
233	0xbe88511b	-0.2662438
234	0xbdd8ff40	-0.1059556
235	0xbeb1c518	-0.34720683
236	0x3eb8320c	0.35975683
237	0xbe60b3aa	-0.21943536
238	0x3ebd7fc9	0.37011555
239	0xbe21d1aa	-0.15802637
240	0xbda17be4	-0.078849584
241	0xbde20147	-0.110354
242	0x3e9896b3	0.29802474
243	0xbee3f9ed	-0.44526616
244	0x3e2f4118	0.17114675
245	0x3df4d9bc	0.11955592
246	0xbd831207	-0.06399923
247	0x3d261dfc	0.04055594
248	0xbb62c2f1	-0.0034601057
249	0x3e2ac2d4	0.16675884
250	0x3c853eb5	0.016265253
251	0x3e82bca7	0.25534555
252	0xbe646d86	-0.22307405
253	0x3eda87f5	0.42681852
254	0xbcb77368	-0.022393897
255	0xbeafb443	-0.34317216

onnx::Conv_250 f4 [32]
0	0xbb6121c0	-0.0034352392
1	0x3da1b18e	0.07895194
2	0x3e207d42	0.15672782
3	0x3dd5565e	0.10416864
4	0x3caa2aac	0.0207723
5	0xbc01084c	-0.007875513
6	0x3e0303a4	0.12794358
7	0x3d0e2de7	0.034711745
8	0x3ce5b30e	0.028039481
9	0x3d8f82df	0.070073836
10	0x3e3b75ae	0.1830661
11	0x3d30d667	0.04317322
12	0x3db6137b	0.08890434
13	0x3c8eb1b4	0.01741872
14	0x3d757f1e	0.05993568
15	0xbd36ca88	-0.044626743
16	0x3dd915c1	0.10599852
17	0xbcd240a4	-0.025665589
18	0x3d867a0e	0.06566249
19	0x3db2e840	0.087357044
20	0x3ddfecbc	0.109338254
21	0x3e3d70bc	0.18500036
22	0xbca3199c	-0.019909672
23	0x3ddb3622	0.107036844
24	0x3ccf1a28	0.025281027
25	0x3e3c9237	0.18415152
26	0x3cca1884	0.024669893
27	0xbcbbdfb4	-0.022933818
28	0x3db5a32c	0.08869013
29	0xbdfd18af	-0.12358224
30	0x3da8c7dc	0.08241245
31	0x3da9a573	0.0828351
